results/transition_training/transition_model.npz (npz, 7003 bytes, 2 tensors)

W f8 [24, 25]
00000000: 7814 3979 437f 88bf 182e 9b3d 4a57 a0bf
00000010: 4f1d 5f83 158a 643f aeed 4a51 8ff4 873f
00000020: a104 5e0d cb9e 943f 4dd3 9003 8e91 8abf
00000030: c395 6903 95f1 96bf 1573 0f76 494e 7b3f
00000040: b9ee b258 7029 853f 82fd 40db bd70 8e3f
00000050: 2ac1 5505 9edb 89bf 0dd3 9655 9969 9bbf
00000060: 7f4a e5ab 9734 64bf 430f 161f a0bf 873f
00000070: 0ed5 9714 735f 943f acd3 e871 7a81 90bf
00000080: 0651 d33d 985a 9dbf e729 6e4c 23bb 5c3f
00000090: 8797 0f03 1a76 903f 5583 9b94 9bd4 993f
000000a0: a359 de00 ba52 83bf 2af0 c985 8bc1 99bf
000000b0: 62b4 32f2 74ff 793f 283d 45a4 1703 893f
000000c0: c44c b448 2371 973f ee70 d5d7 fa8a 593f
000000d0: 536c 419b 675d 70bf 78e6 402a b166 6dbf
000000e0: 0985 31b5 f052 8bbf 255c f99b 9b32 613f
000000f0: db24 9097 c4a7 81bf ef1c 4cf4 a502 5d3f
00000100: a5fc 47b9 5e56 723f 0236 5d23 69b6 72bf
00000110: 8b94 8da1 e617 423f 7585 1f63 5eb3 703f
00000120: 3d43 129d f70b 66bf bb25 c48d 38c0 6d3f
00000130: 61ca df64 831c 5cbf 8aeb 3fab 3cec 8c3f
00000140: 9741 72e3 7f0f 89bf 1d6b 6d26 effd 923f
00000150: c9c8 fee9 623d 933f 7ab3 cfc2 fc66 54bf
00000160: 3c5e f93e c003 6b3f ed79 028a ccef 5abf
00000170: cdf7 94e0 1753 923f 3fee 8aaf 4bee 983f
00000180: 607c f2b5 1313 813f b20f bde8 c9fc 893f
00000190: 6cf4 3049 81d4 9e3f 40cd 7667 ccaf a4bf
000001a0: cf40 1a3c 71bb aabf f9d1 486d 173c 983f
000001b0: a835 a6f4 39ca 9b3f 3294 5a95 1ca5 9a3f
000001c0: 889b 91bb da1e 98bf 64bd 090d 2712 a9bf
000001d0: 5ab8 7c8f c23d 763f dfa1 54bd e130 a43f
000001e0: 68cf 26f5 83f2 953f eaf7 b415 f4fd a5bf
000001f0: 08ab 54e4 a66c a5bf 5adb 19cc d30f 903f
00000200: 1180 32b4 62ea a53f 6fd6 1465 dbc7 9a3f
00000210: 4104 4dfe 0fa7 92bf c524 ed11 a1f4 a6bf
00000220: b556 55d9 e667 993f 9e6c 549f d7fa 923f
00000230: f57d 0132 5c55 973f 2314 adb0 0b15 93bf
00000240: 8e69 282b 5d93 a6bf 6eec 2215 7c3f 8b3f
00000250: 0bfc e967 e4be ae3f 52f7 f66b 3b98 653f
00000260: a0d4 17fb b40a 75bf 9444 295e 64f9 89bf
00000270: 5ade fa6d e1d5 67bf bfb5 43a3 6acc 963f
00000280: 9bba 574c b2a3 7b3f 60b6 1a0b 8ed5 6dbf
00000290: ec70 efcd 1adf 96bf 6a55 9766 8eec 80bf
000002a0: 5437 4975 3d7d 903f 9dc1 ff47 ff25 853f
000002b0: 0e48 a9b5 a3a4 58bf 36bb 2fbf 7474 91bf
000002c0: 4436 96b2 e67f 6cbf c8e3 ed49 9e80 963f
000002d0: 0c3a 913a 91c0 813f 43e7 c53a 1dcf 3dbf
000002e0: 8302 a309 cb5b 98bf 6cb6 1345 81ba 79bf
000002f0: 567a 0836 e77b 913f a46f 0b42 ad27 813f
00000300: 4b62 6466 37ec 5b3f 8a9b 0df6 9dfd 94bf
00000310: f389 d844 472b 7bbf 532b 3bef c4fd 8b3f
00000320: 7c78 544d 35af 823f 9abb 3207 0672 7a3f
00000330: c42a 775e 956d 7ebf 14f9 f819 cd7b 84bf
00000340: b390 6077 3832 893f 8366 e6bf d8cd 83bf
00000350: f330 4754 dfff 85bf e9d5 f94c 3241 463f
00000360: a6ab d4d5 2c70 95bf 5355 d732 e59f 843f
00000370: 2edb 2614 64db 64bf a53a 4ac0 7fa3 6abf
00000380: f198 ba2b c33d 7cbf 6c1b 2d3a 4d06 6c3f
00000390: 54b4 ba26 d82d 873f 9fb4 fc6e 3e0d 6dbf
000003a0: 1853 6e4e c716 833f 9606 5bee 1f88 5d3f
000003b0: 3ee3 0c02 f8dd 823f 89c5 e3f2 7838 903f
000003c0: 95ca c4fc ee47 853f 471b 14dc 0da9 733f
000003d0: 8a37 8713 1c6e 70bf c49b 69cd 8042 89bf
000003e0: 7395 61bd 1fe8 713f 3161 cc26 46be 763f
000003f0: 408b 0941 86eb 98bf ddb0 c635 7f04 99bf
00000400: b61e 4a72 d06a 523f ab33 72a9 7f35 963f
00000410: b215 89c2 6cad 603f 128c 246b 6901 8cbf
00000420: 0047 a326 64c8 99bf 7e00 dda9 1811 8a3f
00000430: 61d0 d4b0 c292 9f3f b582 be80 0b7b 903f
00000440: 7d63 cfba 7f90 81bf 1c04 ae03 2ec7 96bf
00000450: 5062 fd89 44fc 80bf be74 5cc9 8ef3 a13f
00000460: 1842 c21c 0c10 8b3f 6f55 ae63 5cb0 90bf
00000470: a8ca 46d7 e1c6 9abf 11e0 1cb9 36f3 7d3f
00000480: 7b17 a85e aaf3 9e3f 8fdc 192e abcb 783f
00000490: 0556 93e6 8400 9bbf d140 ebb2 3cdb 9bbf
000004a0: aba4 a59c b5fe 4d3f 8a9d aa5a a333 a23f
000004b0: 7ba2 8fac a982 a6bf 327f 30b1 1404 9fbf
000004c0: eaf4 67d1 2657 86bf 9e46 f9e9 99e4 9d3f
000004d0: 236a 29e4 3e03 a93f 482e de9f d249 a6bf
000004e0: 9262 052c a9b2 98bf 0d38 1a81 9286 78bf
000004f0: 6cbe cc0d 8245 973f 4d9c 73ac 1a1a a63f
00000500: cb7e 89dd d88c a4bf b6ca 18ae c772 9cbf
00000510: dde6 d711 daed 88bf d7e9 37e3 b702 9d3f
00000520: ef1c d9a7 0b63 a93f 9d7d f1fb b035 a7bf
00000530: 4eaf ec30 ec10 9cbf 90a6 f9fa 5105 88bf
00000540: 09d5 56ef 82d0 a03f 432e 8324 1783 aa3f
00000550: 7eae ff4f 2f33 a4bf f618 f49e 9059 9cbf
00000560: 4d32 b76a 5b72 72bf 09d2 0ccf d9b4 9b3f
00000570: 9de7 80c7 2e16 aa3f 5955 71e5 5435 5c3f
00000580: 8374 f479 64f5 82bf e42b f173 933a 8f3f
00000590: 95b8 5795 2e93 97bf 4155 bdb7 bc5d 8cbf
000005a0: 38f1 fc3e 1589 543f 7755 3276 1fef 71bf
000005b0: bdeb dd6a 0f70 873f 0a43 9e27 3133 76bf
000005c0: d132 0dfe 6893 91bf c0f7 3c43 d067 823f
000005d0: 84eb 8e99 19db 503f 57bd 6968 dcd0 943f
000005e0: 6206 7856 6f39 3f3f 95bf 8d04 4c74 8fbf
000005f0: e048 6f75 1fbc 90bf 7926 3205 761d 7ebf
00000600: 1837 1f94 0036 903f f8b1 2558 f949 65bf
00000610: 56de e30c 8eb3 8cbf a3ed 20a5 8eeb 943f
00000620: 59cc ad3c 6b9e 80bf 2396 2ef4 4243 31bf
00000630: 4f58 d1b6 f9cd 7dbf 7bf2 7a04 e4d7 76bf
00000640: 20b8 42c5 626c 923f 6e77 b9e6 b2af a1bf
00000650: 1c8b b025 5c23 b1bf af8c 454f 616a 9c3f
00000660: db69 08e2 b5ef a63f 8516 6179 02f1 8f3f
00000670: ad9d 1f53 ff99 9abf 6d87 29b7 ea49 b1bf
00000680: 2e66 4ba4 9836 903f df5d 13ca 37e6 ac3f
00000690: 24e8 da45 05fd 993f a2a3 4570 4576 7fbf
000006a0: b1a9 738e 4bbe b0bf 655e 5a56 c181 9e3f
000006b0: 41b2 0694 f7ba a13f 5457 b81d bc83 a03f
000006c0: 4da3 c1b4 a310 a1bf 4eb3 077a 0bcf afbf
000006d0: 218f e336 7248 8b3f 81af bb81 4855 b13f
000006e0: c025 0b80 914d 943f 99e4 03d5 5e2e a7bf
000006f0: 72f0 b46a c94d aebf e757 5bd2 6df1 9d3f
00000700: 9143 5c7b 9c46 a13f aaf4 7f40 6ab4 8ebf
00000710: 2691 517b dd5f abbf de00 7c9c 5e17 81bf
00000720: ad31 86b3 935b b13f c914 82df ff8e 563f
00000730: 9080 dfee ff8d 91bf 2a40 c884 51b1 acbf
00000740: b510 7a0f 3182 63bf d8e7 26a8 204e b23f
00000750: 6f30 ac12 7a71 683f 4e3e 6d55 f8e7 94bf
00000760: 97ff e547 3930 adbf 7065 0011 c5ea 84bf
00000770: 3d48 71a3 54a4 af3f 4547 7e58 4d4c 45bf
00000780: 28b0 36c4 78da 90bf 6299 217c afe4 abbf
00000790: 419e 4488 5000 6fbf 73c2 400a 1d36 b13f
000007a0: c5f3 ff62 c462 773f 8c05 62f1 6284 90bf
000007b0: 4594 aedd b78d acbf 75f8 c5e0 aa98 553f
000007c0: 837b 904a 7ed9 b03f 7ef0 6fa1 0b9f 313f
000007d0: 5f1b 1283 f6f7 863f f617 74c3 a0fd 893f
000007e0: 44e7 9297 62aa 923f 42e2 f19a beeb 7ebf
000007f0: 15c6 04a7 b2dc 96bf d114 97ce 298e 913f
-0.011961485993319906 -0.03191596986797779 0.002507249849233929 0.011696929615360254 0.02013699788176793 -0.012972936137978808 -0.022405937512663742 0.006666457135875677
0.01033294459045152 0.014863475087735226 -0.012625917947588567 -0.026770015572497963 -0.0024664842923496906 0.011595965336489327 0.01989536107244754 -0.016118920519335653
-0.02866590382912284 0.0017536015236340131 0.01607552188570296 0.025225096650390928 -0.009435132171159938 -0.02515237812120589 0.006347138233803925 0.012212929440151912
0.02289252406360444 0.001559014286008294 -0.003995327675592258 -0.003589006448262929 -0.013341789750656934 0.002099327015268953 -0.008620773196542355 0.0017706509253814747
0.004476900114695291 -0.004568491645682739 0.0005521656158690309 0.004077309322356161 -0.0026912532999364956 0.0036316971364882245 -0.001715782465450254 0.014122461296201445
-0.012236594322786938 0.018546807022498436 0.01878885796731636 -0.001245257222076661 0.0032976870350401016 -0.0016440865947867603 0.017895100672141773 0.02434652575423812
0.00833716773041554 0.01268918744575118 0.03010751733039678 -0.04040373576153877 -0.052211321436631423 0.023666730923837396 0.02713861995430525 0.026020475974878284
-0.023555200289048922 -0.048966617909963955 0.005429992677632079 0.039435438501019375 0.02143293556009898 -0.04295313611008551 -0.041844573376087324 0.01568537648423827
0.04280384492562928 0.02615301899387251 -0.018215417763034706 -0.04483512252643033 0.024810416235900152 0.018535012340276873 0.02278656058513025 -0.01863497033925311
-0.04409304763631204 0.013304681201011994 0.060050141987623894 0.002636066492157343 -0.005137164074303119 -0.012682708858081683 -0.002909603397565336 0.022264162268518236
0.0067479100011797145 -0.0036418699536032023 -0.022335451907438506 -0.008263695245583864 0.016102752955979696 0.010326380142914366 -0.001504096863432117 -0.01704580704602706
-0.0034789567768658564 0.021975014936717746 0.00866807422621909 -0.0004548498498234585 -0.023787662947827314 -0.006281380615502746 0.01707421557704899 0.008376458719275899
0.0017042675986599528 -0.020498722212689148 -0.006633070368055704 0.013667620230440802 0.00912324564211197 0.006456397578559337 -0.007428725693396646 -0.010001757006759017
0.012302819388488073 -0.009669965130160612 -0.010741944083655563 0.0006791587456535494 -0.020935726691429977 0.010070601095245968 -0.0025460199987849185 -0.003251790536814641
-0.006894838701248172 0.0034209736199132725 0.011317909891056889 -0.0035463542370935543 0.009320790368101892 0.001802474196140135 0.009212434351512418 0.015840425324261474
0.010391108597649615 0.004799894465810812 -0.0040112587671056275 -0.012333875912373567 0.0043717613062644765 0.005552553205028497 -0.024335954398689852 -0.02443121686671722
0.0011240993127631777 0.021688456265610927 0.0020358204094772176 -0.013674567777860278 -0.02517849431826047 0.012727921184364496 0.030833284418989474 0.016094379170342694
-0.008576391113750631 -0.022244185423463944 -0.008293662510980543 0.03506132324239662 0.013214201572084014 -0.016297763427777164 -0.026149300350605614 0.007312024843308521
0.030226385142689587 0.0060536085817296656 -0.02636916787453993 -0.02720351068529753 0.0009153734948032141 0.035550217454608804 -0.04396562797029887 -0.030289004626069267
-0.010908416047636444 0.029192356973288917 0.04885288748910834 -0.04353197289955496 -0.024119036971884507 -0.005987713129469452 0.022726089565536275 0.043167909194203526
-0.04013707832632248 -0.027781600953128836 -0.012172416371857004 0.028330682032881995 0.04958378242423033 -0.04533150744895951 -0.02740830467807536 -0.011728897544532019
0.032840816227159016 0.05178139038761433 -0.03945300914332693 -0.02768541307616431 -0.004503590676404001 0.027057078611692407 0.050950490811785466 0.0017216996254963617
-0.00925711152245357 0.015248443580409395 -0.02302239214434872 -0.01385066447952943 0.0012533862572601927 -0.004378435990607491 0.011444206665819462 -0.005419914255882183
-0.0171638875065579 0.008987071086831722 0.0010288000105293802 0.020327991364351785 0.0004764458485341014 -0.015358537568061862 -0.01634263185753404 -0.0073523149650412895
0.015831002274175082 -0.0025987501150466184 -0.014014348762869815 0.020429829434062474 -0.008114660062096645 -0.00026340851416714795 -0.007276511617496053 -0.0055769831594117926
0.017991584100563895 -0.03454360071621819 -0.06694580001980593 0.027749557937011 0.04479759582700967 0.015596408204270116 -0.02597807831616954 -0.06753413173421814
0.015833268192045384 0.05644392339462078 0.02537925948011134 -0.007681151623139567 -0.06540367343737931 0.029791851897782346 0.03462957078895502 0.03225505698007561
-0.03333007413386344 -0.06212650169968602 0.013321773815227868 0.06770756881058838 0.01982714981094147 -0.045275653364975806 -0.05918721606801193 0.029241291011963624
0.033741846140521344 -0.014992551892641554 -0.053465768149893386 -0.008345355177425903 0.06780360348620347 0.0013768671761067877 -0.01714324851479937 -0.05604033227803058
-0.002381416150287386 0.07150463204644042 0.0029837974774463076 -0.020416145528825695 -0.05700854303995511 -0.010213412839265884 0.061800618125417796 -0.0006499650635183116
-0.016458403564385687 -0.05447910681032188 -0.00378432969059242 0.0672319555312784 0.005709426055543203 -0.016130014403193324 -0.05576872426107874 0.0013181370478317054
0.06581868477267787 0.000268879260545203 0.011215139269791839 0.012690788235442323 0.018228092671712007 -0.007549042274256625 -0.022326270526894804 0.01714387248445776

b f8 [25]
00000000: ce1d d69c f62d 8b3f 7914 6576 8ee7 84bf
00000010: 02f9 0809 ffc2 9bbf 9217 f90c 8ee9 7b3f
00000020: 1007 e681 ef69 a03f 0b9b 6662 ae8a 893f
00000030: 6e0f 8225 adcd 90bf bdbc 487e 4b8e 9dbf
00000040: 3778 b9c6 9eab 3cbf e554 6152 d3d5 9f3f
00000050: c84a 3f0e 3488 773f c254 da43 a22b 97bf
00000060: f9d4 17f5 4352 a1bf 2840 ae8c 3761 8f3f
00000070: 5389 eefa 2a75 973f 1b59 4e9e 7439 843f
00000080: a14f b75a bb17 95bf 7886 9665 b3ae 9ebf
00000090: b19e a4da 8bd3 6c3f 7cd5 4a76 f3cb 9b3f
000000a0: 560c 888b abcb 833f 552f 1d69 ab8f 7ebf
000000b0: 66e2 6470 cbd9 9abf c3ad 0e55 ae58 823f
000000c0: b6be 334d 347c 993f
0.013271261845843176 -0.010207283962367907 -0.027111039091544782 0.0068145321707272655 0.03205822430301286 0.012471544626192285 -0.016409593023595397 -0.0288631244495121
-0.0004374754559871604 0.03108911695774887 0.005745128004451323 -0.0226273874200913 -0.03383076063975383 0.015322145443661908 0.022907897535000398 0.009875212746731912
-0.020598342334622214 -0.029963305545271685 0.003518841888894141 0.027145198912611232 0.009665813632642333 -0.007461232731497199 -0.026221445784559448 0.008958208056205735
0.024887864315074913
