results/transition_training/transition_model.npz (npz, 61059 bytes, 6 tensors)

W0 f8 [24, 64]
0.001269695630975175 -0.0013048919076834873 0.006394753545268632 0.0010808631209433192 -0.0053574323006846765 0.0036351688318660633 0.013014607506931791 0.009482935832234082
-0.007045814430779322 -0.012640155147020974 -0.0062212156928169605 0.00042027172142741347 -0.023259586082775095 -0.002200551444482183 -0.012452115436875258 -0.007313581250992342
-0.005436958192880947 -0.003174121533840841 0.004109281753078613 0.010418650176855565 -0.0012686425865816545 0.013671792013021562 -0.0066433034798136364 0.0035354504813636238
0.009014982987919059 0.0009398882204521488 -0.007430204403647142 -0.00922282578214712 -0.004583186541734342 0.0021806728607351735 -0.010077905261417776 -0.0021101174718548775
-0.001591543019050223 0.005407985717169798 0.002165602671689186 0.003549154432134601 -0.006550609877430874 -0.0012834696429777023 0.007841952884267672 0.014919395652853329
-0.012553617505899813 0.015120457281487414 0.013443098050421105 0.0077810608505091685 0.0026258338101322414 -0.0031385685462382525 0.014575955122689613 0.01959475504615077
0.017999158964671916 0.01313976578241163 0.0035719673581857767 -0.01207444973988231 -5.412452082273553e-05 0.006560895362162575 -0.0128981238210784 0.003923206315386903
0.004299349616165214 0.006967058665451917 -0.011849987235554735 -0.0066397576428116525 -0.004358845329842973 -0.011691222664608193 0.017388618667937134 -0.004957633132917459
0.0032867494673556852 -0.0025835905160308966 0.01582728865514414 0.013194468978682932 0.006331385589879666 -0.022023359626508667 0.0005190203579204077 0.006837908061690527
0.01003028318111208 -0.0061733600228466405 0.018211182851518813 -0.013195909838893028 -0.0066122919515855545 0.009338646321374421 0.000489615917316472 0.020012279544013484
0.0018830095558749324 -0.0063284462214861495 -0.003776013107774329 -0.010904411485634348 -0.012766546022103508 0.0063066925579850054 0.005809750929656205 0.012934638210809571
-0.0075450321128670604 0.01687993982970505 -0.002871905637015686 0.01573444009177648 -0.004332286457105292 -0.007354038021620608 0.0024952322945338843 0.010307685953850348
0.001609434067304608 -0.005852082995515702 -0.013405968933125045 -0.0140057910548978 0.005023849340967125 0.00988979716770642 -0.0016406519869845682 -0.01073580527529633
0.00872513210975961 -0.012798220386949964 -0.007126035449451672 0.006212186678984733 -0.02248770086304892 0.003861172909885776 -0.005815148237609636 0.0010953513335551464
-0.0007564670980122067 0.002018934724627489 0.006940205590515854 -0.007578337940149539 0.01420078047325661 0.007258242391438431 0.00843125469777768 0.011637332844672648
0.007869404205403793 0.008434976214680544 0.0007556983230487913 -0.014259042912221982 -0.0013549115483201168 -0.007690639544456551 -0.014221333261834699 0.0025854173706435063
-0.0056811300787131275 -0.01030525993128199 -0.010429829537373416 0.0026830328061638363 0.0035670638324898953 0.013207678210711477 -0.00010535625168600986 0.01037030040037585
0.014054427968819358 0.011479895219649356 -0.023660872233912958 0.01227832765135872 0.003424653079476581 0.004267540770775712 0.0037159525210048597 0.003821897331339751
0.0032039090817701323 -0.003579075936653949 -0.01899156677471795 -0.0010875622049069814 -0.00804636828133641 0.010723865308154916 -0.00289528357959197 0.0008620876053905816
-0.008471321025172706 -0.0050986826074400455 -0.00011468380016558754 -0.01481701169797784 0.0031000989040292693 -0.0010367421514396163 -0.011852741670765618 -0.0239589039636523
0.005126398959459659 -0.002974121762553641 -0.005295428278777814 -0.0023574677153382156 0.01816665834862658 -0.00047453080050152094 0.0008643386564091258 -0.014869918591055065
0.016448779771780678 0.009194556307809045 0.010662205820754488 0.00043390130820643633 0.009166812181837217 0.003706773486298448 0.006142416670799062 -0.001535085035136031
-0.014731382301697174 0.010296072713749214 -0.019355486638455523 -0.002401688367718387 -0.0020338962096850466 -0.01043053263974669 0.006136387696935786 -0.0019619974605385457
-0.004370224098615917 0.00517915656395544 -0.004754670822741312 0.013892111855868226 0.0035736063451428067 -0.004742349405508395 -0.01941588389427659 -0.013108008272721945
0.010841529370713426 -0.0005375106581039486 -0.0028345553778084537 0.01640213039829957 -0.012832949811353862 -0.0058723633963843214 -0.004678922215635835 0.005831448816173377
-0.0065717999747789526 -0.0061471286144481815 -0.016053870157684575 0.007289588412767392 0.008086803915974744 -0.004733533670096858 0.0016400219155509497 -0.012923498506677048
-0.004710663059909061 0.013779151846781964 0.0013614166591455628 0.023095995837673945 -0.007877628570057638 0.0057186453409480646 -0.001964143579024418 0.005696684292757895
-5.403020603922179e-05 -0.005602442741463969 -0.008669057037899795 0.030711977198724684 -0.0006460083975735722 -0.02013879280534383 -0.006496622350154522 0.006805014099155323
-0.004999609126804785 0.013596081200409768 0.010008739148258394 -0.0015169999827869634 -0.004693447640589304 -0.010009413340033786 -0.006984792930783715 -0.014730155817581336
0.012017296433234584 0.015920188497729762 -0.012550711739606845 -0.011846709753815693 -0.017667307863542276 -0.009635153216168792 -0.031035216713264972 -0.011414845594585499
0.012956167111776029 -0.0034385721499405543 0.008524690772451349 -0.004885013718520781 0.017613490896097695 0.0019817464655769216 -0.0037983478890083735 0.025553628733952168
-0.0032522124930809975 -0.012235892731335136 0.002034705503487812 -0.00037382191461343125 0.010745477374273355 -0.009211835831021632 0.008066263918360574 0.00847481560810445
00000000: fb96 7f4d 7dcd 543f 8448 5f04 1d61 55bf
00000010: f88d 7c95 6231 7a3f 60bb 60f0 77b5 513f
00000020: 2b02 5ac8 acf1 75bf b019 f267 80c7 6d3f
00000030: a37f e60c 67a7 8a3f def5 271a ca6b 833f
00000040: 6bb3 dc68 12dc 7cbf 7556 c8e7 14e3 89bf
00000050: f279 12df 6a7b 79bf b3ed 884c fd8a 3b3f
00000060: 7912 2d66 5cd1 97bf 2247 970f e406 62bf
00000070: e806 8aa4 7e80 89bf f568 a284 d8f4 7dbf
00000080: 99df 0c5a 1045 76bf 8fd4 cd85 9d00 6abf
00000090: 3815 d5eb e4d4 703f 2377 398e 5f56 853f
000000a0: ed0d dc9a 12c9 54bf 6ad1 96dc f4ff 8b3f
000000b0: d065 ee32 0236 7bbf 1df0 3586 60f6 6c3f
000000c0: d15b db88 7276 823f ba31 9995 5acc 4e3f
000000d0: e3ff a84e 226f 7ebf 6362 e3b8 6ae3 82bf
000000e0: 4174 eec4 d1c5 72bf c31f d8d3 33dd 613f
000000f0: 216e 148c b9a3 84bf 33e3 08b1 3c49 61bf
00000100: cb4a e34d 6a13 5abf defe ad1c af26 763f
00000110: f047 d514 99bd 613f 77f3 dcc6 1d13 6d3f
00000120: 2d27 14f3 cfd4 7abf e57e 1609 4307 55bf
00000130: 70ca 6519 710f 803f a09f 3d63 0f8e 8e3f
00000140: 111d 1305 b6b5 89bf 1c49 326c 79f7 8e3f
00000150: c42a de13 0e88 8b3f 3f14 199e 08df 7f3f
00000160: d320 dbca c582 653f b526 6528 0eb6 69bf
00000170: 02b5 7a94 ffd9 8d3f 30a9 62c0 a510 943f
00000180: b161 6f1c 5f6e 923f 4e1e 8082 05e9 8a3f
00000190: 1492 8b5f f542 6d3f e0fa ff35 7dba 88bf
000001a0: 6f70 f05f 7860 0cbf 301c 35f0 98df 7a3f
000001b0: 9a29 eedf 546a 8abf 08ea 1ead c711 703f
000001c0: 2591 eddf 319c 713f a3fd e091 7d89 7c3f
000001d0: b8ea 135d ce44 88bf f62c de5e 4a32 7bbf
000001e0: 716e 3da2 94da 71bf 7a3d f557 91f1 87bf
000001f0: 5570 0172 52ce 913f b13e be82 744e 74bf
00000200: 7b36 1e2f d0ec 6a3f 6335 b998 2e2a 65bf
00000210: 1bfe a15c 0735 903f 0322 03a6 b305 8b3f
00000220: fe18 c060 f0ee 793f b727 60a5 4a8d 96bf
00000230: 6600 4bbb db01 413f 2bdf f7f7 1002 7c3f
00000240: 7526 dcd1 c18a 843f 0c14 79b6 3c49 79bf
00000250: 0633 13cb f3a5 923f a792 9709 7506 8bbf
00000260: a249 f09a 7d15 7bbf 594f 50e4 2320 833f
00000270: 04e9 1d2d 320b 403f 55c9 a358 197e 943f
00000280: b775 791d ead9 5e3f 3f77 e458 dbeb 79bf
00000290: 273d d499 dfee 6ebf b412 b455 0d55 86bf
000002a0: d3b8 2ecd 5825 8abf 8d01 85e4 0bd5 793f
000002b0: 143b da23 f7cb 773f 15e3 cec0 797d 8a3f
000002c0: 85a6 c022 8ae7 7ebf 04ae 1b96 f948 913f
000002d0: 24c6 3899 d286 67bf fdcf 7566 b01c 903f
000002e0: a419 674a bbbe 71bf 080f be8c 441f 7ebf
000002f0: 42f3 3aa3 e170 643f 43c6 8d30 321c 853f
00000300: a8f9 c8ab 745e 5a3f bb79 4491 5af8 77bf
00000310: 3399 1cb1 9674 8bbf 617d 4874 11af 8cbf
00000320: 0e69 e949 e393 743f 36ea 311b 1a41 843f
00000330: 76b1 34a8 64e1 5abf 61d1 6d64 a7fc 85bf
00000340: dd7f 8468 7bde 813f ac54 1210 f435 8abf
00000350: 7fdb 4993 3030 7dbf 9a57 f729 f371 793f
00000360: 937b 130f 0407 97bf 45bd e86b 77a1 6f3f
00000370: f4e2 07f8 9fd1 77bf ef9a ef89 3cf2 513f
00000380: 84ae 25b9 b4c9 48bf 6e5b ae53 038a 603f
00000390: d5d9 9e40 556d 7c3f 2891 c699 760a 7fbf
000003a0: 58b8 ae7d 4c15 8d3f dba6 299b d1ba 7d3f
000003b0: a794 87d9 6744 813f 1623 d85f 50d5 873f
000003c0: 2b16 9c8d d51d 803f 2671 e057 5b46 813f
000003d0: 5d38 a4ca 41c3 483f 6a8f d757 d833 8dbf
000003e0: d719 7f32 e932 56bf 539f 4255 3880 7fbf
000003f0: 32eb 1e0a 1320 8dbf 9ba6 b561 032e 653f
00000400: c23f 47be 1845 77bf d696 0d93 ec1a 85bf
00000410: 5b82 2006 3c5c 85bf 8a9c 0245 bafa 653f
00000420: 88f0 1ad0 ac38 6d3f d0ce c48f a00c 8b3f
00000430: 0991 269f 569e 1bbf 64f2 8d28 063d 853f
00000440: 2ba8 eb63 91c8 8c3f 973c 3d74 c582 873f
00000450: d409 c241 8e3a 98bf ff7f b23d 6125 893f
00000460: e777 3f9f 040e 6c3f e59d b740 d77a 713f
00000470: e277 a3d1 ea70 6e3f fe2b 7f81 194f 6f3f
00000480: d5c9 3797 153f 6a3f de6a 21c3 dd51 6dbf
00000490: 6af2 c978 8672 93bf 4465 8e06 91d1 51bf
000004a0: 3894 f544 9d7a 80bf ef28 48d6 64f6 853f
000004b0: a00c 2f89 d9b7 67bf f9ed 2409 b73f 4c3f
000004c0: d367 0e76 6959 81bf 6b83 d330 5be2 74bf
000004d0: 0acb 32af 4c10 1ebf a48e 56a5 6158 8ebf
000004e0: cd8b 07ed 6065 693f f8da a068 69fc 50bf
000004f0: 6541 c00e 4046 88bf 8037 e3d3 ae88 98bf
00000500: 05b7 083e 6bff 743f 1f2e 8b76 2f5d 68bf
00000510: f31e 69b4 a8b0 75bf 53de a3d7 f74f 63bf
00000520: 7298 f0cd 479a 923f 91a7 e344 4e19 3fbf
00000530: 6f70 8721 9952 4c3f 9a94 57b0 1e74 8ebf
00000540: b432 b7ec f2d7 903f ee6a 2575 98d4 823f
00000550: b948 6d0a 11d6 853f 3d21 aeed a76f 3c3f
00000560: b58c 3cb4 0cc6 823f 0df1 b6dc aa5d 6e3f
00000570: fa04 836b ca28 793f 9e72 7001 9d26 59bf
00000580: db6f afa9 7c2b 8ebf 3f8e a97c 1b16 853f
00000590: bafa 70b8 ecd1 93bf 2a39 d39f b4ac 63bf
000005a0: ae9f 87b6 63a9 60bf 7f63 8a64 9a5c 85bf
000005b0: e728 9507 7822 793f 82ee b05d 9b12 60bf
000005c0: 35a4 4619 83e6 71bf 2e43 0241 bd36 753f
000005d0: 249f fd3a a279 73bf b222 bfb0 7773 8c3f
000005e0: f883 324c 6546 6d3f 4d54 a5b9 b66c 73bf
000005f0: 3739 65e9 c1e1 93bf f7bb c616 5fd8 8abf
00000600: a3cb af70 1534 863f e7c4 5159 f79c 41bf
00000610: 6036 af54 7e38 67bf 0fea 9456 b8cb 903f
00000620: c4fe 015e 2948 8abf 929c cd8b 9e0d 78bf
00000630: 15d1 589e 342a 73bf 8a9c 429f b7e2 773f
00000640: edff 7a1f 08eb 7abf 5853 d045 bb2d 79bf
00000650: a5b8 34fd 6c70 90bf 839f 58fd afdb 7d3f
00000660: 1045 c972 d08f 803f e8d9 eb44 7863 73bf
00000670: d12a 7d1f c0de 5a3f f518 7d9b a277 8abf
00000680: 687a 8efc 7c4b 73bf 5e6c 6374 3e38 8c3f
00000690: c59f be01 324e 563f ba5a 2a0b 7aa6 973f
000006a0: 60a1 a068 2522 80bf bafd 772b 6f6c 773f
000006b0: 0b49 f88d 1b17 60bf d07f ba0b 6855 773f
000006c0: c57e 54be cf53 0cbf ac05 a345 96f2 76bf
000006d0: 8c31 b823 15c1 81bf eaf4 a7e6 f572 9f3f
000006e0: 68f4 6278 1c2b 45bf 8663 eb81 439f 94bf
000006f0: be3a 74c8 339c 7abf e236 1310 93df 7b3f
00000700: 291c 145b 787a 74bf 384c e020 43d8 8b3f
00000710: 8018 873a 767f 843f ab41 1a54 c2da 58bf
00000720: ecf8 f2c1 6f39 73bf b7aa 94b7 d07f 84bf
00000730: 9d11 5013 169c 7cbf 5310 030c d82a 8ebf
00000740: 082e 5639 869c 883f f48e c6c3 614d 903f
00000750: f37f b403 30b4 89bf 63a9 a977 1643 88bf
00000760: 35da edf5 6017 92bf b4a5 a45f 98bb 83bf
00000770: ae21 3b23 b2c7 9fbf 801d 24a4 aa60 87bf
00000780: 3374 3650 c388 8a3f b1cd b95d 352b 6cbf
00000790: 4d0a 9ca0 6475 813f f3bd 95e2 4e02 74bf
000007a0: cdf1 775d 4509 923f 0b96 4608 063c 603f
000007b0: 3eb3 c97e b61d 6fbf bf67 d3fe ba2a 9a3f
000007c0: 8182 8449 62a4 6abf 2495 f2b8 210f 89bf
000007d0: d1e8 0533 16ab 603f 97bf d5e5 b07f 38bf
000007e0: ca23 388f b901 863f 9af9 0aad a7dd 82bf
000007f0: 6194 d79d 0b85 803f 6ff2 027f 3e5b 813f

b0 f8 [64]
0.000266058853720817 -2.1256489527952816e-05 -5.709941390633328e-06 0.00018305255648929457 0.00016013784855312295 -1.7449275742944677e-05 0.0005823833543828834 -5.576803765915508e-05
0.00024749022319966486 -1.9284192162831393e-05 -0.0005219906168434302 -5.835973466381478e-07 7.803956167809401e-05 4.0308338045602715e-05 -9.520460200627459e-05 -4.9913354737290694e-06
0.00025924377722608306 9.631557841772126e-06 -0.0004162206085077691 2.9093827341936558e-06 -1.8702088709431234e-05 -0.0003970770987058997 -8.336695817200211e-05 0.0006549397572230403
2.2608484731145357e-05 4.5199479519988175e-06 1.4471538253246288e-06 4.726633291019049e-05 -0.00016677635477424277 -0.00040815343658393434 -7.628953169525137e-06 -3.785754459449426e-05
-5.149900834182568e-07 -9.531111846136648e-07 0.00014764255278746692 5.569149872310712e-06 2.001245388454821e-05 -7.257176980303449e-05 0.00021249530978731496 -0.00010386886854031522
-2.2668410154304997e-05 0.00016230494357284534 0.00016649816939382295 -6.077001452166272e-05 1.0835086552209651e-05 -8.638384449268926e-07 -0.0003720498011196715 -1.632862669689074e-05
-2.549749167902854e-06 -0.00019725913708674775 8.922697292878578e-05 -3.052425163836605e-06 5.068140593691329e-05 0.0006418108231818376 1.1817264022079316e-05 5.672322031939471e-05
0.0001620824681910412 -0.00012358199268528233 -0.00011482423484262252 0.00013085591092805557 9.128023072254043e-05 -3.719996509174667e-06 2.201080896514152e-05 -0.00033630505121511983
00000000: 15bb 5613 ba6f 313f 0c4b 6dd6 fe49 f6be
00000010: 8ea7 fcbc 00f3 d7be eb4c b57c 39fe 273f
00000020: 3df8 0fa5 55fd 243f 89cf 3519 014c f2be
00000030: 44cc fbba 6215 433f 317a ea2e 0f3d 0dbf
00000040: a03d 2b6a 3238 303f 23ab 3e98 8f38 f4be
00000050: be97 6750 c61a 41bf be53 1b23 1095 a3be
00000060: bf67 f775 2575 143f d90c 05f3 1722 053f
00000070: 89da b19b 12f5 18bf fe44 0ed9 67ef d4be
00000080: 1f18 7d8b 63fd 303f 9767 e63a e732 e43e
00000090: 2938 c6e6 0547 3bbf dbbd ac12 da67 c83e
000000a0: 2fd8 febf 4d9c f3be f693 2627 d905 3abf
000000b0: 309c 876f a9da 15bf 769e 476b 0876 453f
000000c0: 0899 923d ebb4 f73e 746c 21d5 41f5 d23e
000000d0: 34ad 4775 7a47 b83e 79c0 18d5 fac7 083f
000000e0: a9ef 9ffa 15dc 25bf 4ed6 70a9 adbf 3abf
000000f0: 6100 eead 86ff dfbe 9076 d853 27d9 03bf
00000100: d505 792b bb47 a1be d3cc fba8 29fb afbe
00000110: 46b5 16df 0f5a 233f fcd5 a642 d45b d73e
00000120: 7638 f15b 0dfc f43e 11a4 fc82 3506 13bf
00000130: 2704 ebcf 28da 2b3f c163 e592 853a 1bbf
00000140: 7202 c448 01c5 f7be c861 68d9 0c46 253f
00000150: 81fc 8062 c0d2 253f a987 b1cc 69dc 0fbf
00000160: ee1d def4 0ab9 e63e 43cb 55d4 50fc acbe
00000170: 1e5d 71ba f561 38bf cd96 b3ae 2e1f f1be
00000180: eba4 d36d 8b63 c5be b0e9 d215 ebda 29bf
00000190: 875e fcb8 eb63 173f 6672 f37a 089b c9be
000001a0: 3b0c 1ed9 5792 0a3f 9ae0 753f e607 453f
000001b0: 17c0 6c66 58c8 e83e 1dd7 7202 43bd 0d3f
000001c0: d48e decc 953e 253f 82e4 e13b b932 20bf
000001d0: 9395 7055 b919 1ebf 2cda 41b7 cb26 213f
000001e0: dd14 436c b6ed 173f 014f 64b5 a134 cfbe
000001f0: d688 4d46 7b14 f73e ab73 4a32 430a 36bf

W1 f8 [64, 64]
-0.00039480550544677723 0.01386040497188172 -0.0010787733041136467 -0.005625863801463216 0.0023720831457885337 0.005253793110228285 0.00573088746232713 0.0028282649912935286
0.007500454533033871 0.009477606909385967 -0.011079718356937716 -0.0037636008202308 0.008676501698217837 0.0049778658741236985 0.002280106214558922 0.006722466972946228
0.009515826135279633 -0.008573569088868374 -0.012268057030622276 -0.011532711011370132 0.0185313568885126 -0.010536887607435185 -0.0023469384013859217 -0.001853636057499538
0.010348744918651736 -0.01737451092119604 -0.0003995343768893591 0.012126257543218492 0.011094734509501278 0.004115617469284417 -0.002553918753704735 0.017549637756844098
-0.016709589818351887 0.009795547552557233 0.005109007328528315 0.005927969402836802 0.002649389303996107 0.002074848159042862 0.009293326167252154 -0.011522264555314583
-0.01246990358150641 0.0016192057445876436 0.0005095484014687661 0.0016281830488563847 0.015883766632220638 -0.005802629763175914 0.007518505399024457 0.003887808221737749
0.02363842321474202 -0.014009782760348305 -0.005449924972680729 -0.004540319106860509 0.013175658009676352 -0.008155845958057602 0.01658322298810465 0.015976208217569458
0.008686679074346825 0.004371443485408379 -0.01555805534929741 0.0018180619604347633 -0.014305623704930163 -0.00362701104821892 0.002027408200852884 -0.003086495805973027
0.009502179628189533 -0.0012898036848966472 -0.015476533866010105 -0.010587388855548992 -0.012729693651774825 -0.0031638716463045723 0.012473058534804867 0.005056761893292991
0.0033927836094325603 -0.012845090605141397 0.023676743557418202 -0.00028140392241001155 0.024155433716535266 -0.008660364505549882 -0.0056803335780202515 0.025981260912992344
-0.010743491760061038 0.004184119212800521 -0.0033805892907717476 -0.00812932247234092 0.02159175865324733 -0.010035287525593276 0.008968813641910751 0.011036505323275334
-0.010107377815274807 -0.01896087296750914 -0.01779624613674078 -0.007990868305380065 0.0022222796479705004 0.003355969759058051 -0.0018882283080306895 -0.0010545827249146666
0.009734633845370901 0.0076755165372252585 0.003780367204056158 -0.006164509745799439 0.007770526043213154 0.0018136267899274904 -0.007476315342090002 -0.0057652012370583905
0.012277317538882625 0.01844197854922537 -0.005294047446034753 -0.020769916724406878 0.005870469263897297 -0.009032612936294903 0.007321223125210126 -0.0037529484114597967
0.02227786095268617 0.00112060445545167 0.009022843569146365 -0.012141063439199082 -0.028178518572373065 0.0013564330515559162 0.0026181169414752625 0.007200298342800508
-0.005533029396884718 -0.012910894732828396 -0.015995618196414683 0.005528177580208597 0.007098576773021518 -0.008752280364320226 -0.00527753984872682 -0.007277486618117529
-0.018942178567235745 0.0019922499957502216 0.008452929043401005 -0.0022215265451200144 -0.014211352815761486 -0.001984673358143323 0.013643491389655447 0.021287461642671486
0.0026870195840317476 -0.007883356324914628 -0.019843644425444153 -0.0154508274505023 -0.0008805873687106965 0.0022689257283077923 0.002555293504197282 -0.0026282271005757113
-0.015422951941168864 -0.015757736980505175 0.0014712400268360258 -0.008240682590278275 0.013033957801079549 -0.014580640922794085 0.01686148549656301 -0.00665725628830352
0.002232944219362824 0.002233507294437862 -0.003439691071900871 -0.02012213104162033 -0.004824339415561082 0.015222785525342305 -0.012798065678628397 -0.018413735036548397
-0.0021872098294102526 -0.004126706374675594 -0.012929094356934298 -0.007519723841030335 -0.004809150373844553 -0.004122523462208585 0.0016242905145679668 0.007064159130498434
0.003864662344819636 0.0034154281101937533 0.016789743304594394 0.0109420521013048 -0.02911063443317487 -0.0036366400696530837 -0.015755909798443064 -0.0068816252677328
0.007698806363321927 -0.00201381027934654 -0.004284126638041726 0.01316825969908106 -0.015031355919208296 -0.0009296434300764935 0.005485811254616464 0.00024848640978643435
-0.011622763017398108 -0.0002279763289577977 0.00806940229940102 0.003564753749838643 0.0031765230571710475 0.003071002358991626 0.001351106010850586 -0.012405679282807927
-0.003088567167137069 0.004324532607241199 -0.031126600442691582 0.007598053005222053 0.0033983567101791273 -0.010843714278406706 -0.007440534293318563 -0.002032172638092055
0.004129661607554023 -0.0037210642630462845 0.011655870125407773 0.0041351000868759145 -0.007867628563224344 -0.0046847740896477355 0.0022486495810658514 0.007281891830129893
0.006796086123451798 -0.0009800397185258463 0.0014900914282162396 -0.00025414480716015765 0.008198239443365242 -0.009856034911330844 0.006024085701975929 -0.018512005969347992
0.004519150037803252 0.002560090912679654 -2.69344966161625e-06 -0.02131718528274199 0.015640336646245086 0.008990808083307494 0.00029438782599973986 0.004574667231833266
-0.009388320724909185 0.00511421962344372 0.01564558078825362 -0.011763316655231847 0.026913661475501643 -0.00435939827817746 0.008265117279887749 -0.008254955031341297
0.003900136510828192 -0.012732438542017948 -0.006591192992867358 -0.002289738950686405 -0.0065567468371425216 -0.002385135292266789 0.009752698654468773 -0.01274660034338804
-0.0119361732429437 0.00048101784585622597 -0.0056358739718646075 -0.010024817087155989 0.0013124028287722475 -0.0056294589622255704 0.003355838468088048 -0.0003965010203789164
-0.0019911906493091224 -0.0006795647149579853 0.01022268087548202 0.0131318823146922 -0.001597778580826746 -0.01029617964071143 -0.015104274604823931 -0.022321932850263817
00000000: d2de f2bb bcdf 39bf 5825 8210 d862 8c3f
00000010: d5dd e603 b4ac 51bf e7e2 9f50 250b 77bf
00000020: 2612 1b71 9e6e 633f c901 6a59 0085 753f
00000030: b6de a463 4579 773f 1c7d 8b34 4d2b 673f
00000040: b0d0 caee cbb8 7e3f 57e1 c2dd fe68 833f
00000050: 5f7d ef9f f6b0 86bf 73d5 04ce d7d4 6ebf
00000060: aade 4c58 fcc4 813f ccbb 21b2 ab63 743f
00000070: 6d19 efb3 baad 623f 1983 c17c 0489 7b3f
00000080: e413 5d90 087d 833f 6803 c6f6 048f 81bf
00000090: 3d1b dbbd fe1f 89bf 1241 0645 769e 87bf
000000a0: c18b 254f e2f9 923f f38c 671d 5d94 85bf
000000b0: 4aee bff5 e239 63bf bdad b88f b65e 5ebf
000000c0: 2390 d707 b931 853f c61a c3b0 9fca 91bf
000000d0: ef09 1615 132f 3abf bc66 91bc a6d5 883f
000000e0: 4546 020f d6b8 863f ce4c efa6 89db 703f
000000f0: 55fe c2b0 f4eb 64bf 91a0 e340 88f8 913f
00000100: d994 3297 511c 91bf 5dc1 1323 b00f 843f
00000110: 41c1 41b6 2eed 743f 864f 782b ed47 783f
00000120: 7ef8 470d 2cb4 653f 9697 979f 45ff 603f
00000130: a4de ac1f 6108 833f 8409 872b fc98 87bf
00000140: 24e5 8820 d289 89bf 50e4 fbed 7087 5a3f
00000150: bc2f 2adc 66b2 403f 4a62 973c 18ad 5a3f
00000160: 3207 e488 d543 903f ffa7 0491 7fc4 77bf
00000170: 9b95 db6c b9cb 7e3f 27a4 4b25 53d9 6f3f
00000180: 9098 8bba ab34 983f 1df3 3c36 29b1 8cbf
00000190: 1782 5f18 a952 76bf 22e8 3ca1 de98 72bf
000001a0: c1e9 09e2 d6fb 8a3f b1df 491d 03b4 80bf
000001b0: 7cb1 9541 31fb 903f d1f3 3b2f 115c 903f
000001c0: b905 4854 52ca 813f 5cf4 e56c cae7 713f
000001d0: af14 51d7 e6dc 8fbf e5f9 602a 81c9 5d3f
000001e0: 0245 b14f 444c 8dbf cdd6 b2ba 64b6 6dbf
000001f0: dfc1 627d c89b 603f 72f9 77d1 d948 69bf
00000200: f348 f3f5 e075 833f 88e6 4529 d421 55bf
00000210: fcc6 7a36 29b2 8fbf 7eb2 1347 d7ae 85bf
00000220: d638 618f 0612 8abf b3e2 fca7 1eeb 69bf
00000230: cb96 e793 798b 893f a31f 492f 66b6 743f
00000240: 692a a3d4 2ecb 6b3f 8783 81e0 864e 8abf
00000250: da01 055d b73e 983f 2fa5 caa4 2c71 32bf
00000260: 3c36 55b7 33bc 983f 8f0b 9572 86bc 81bf
00000270: 1fe0 2aef 4244 77bf fd77 b8e7 d49a 9a3f
00000280: 71d2 080e af00 86bf 299a e7f2 5d23 713f
00000290: aa08 3e0e 9cb1 6bbf 953c 4231 1ba6 80bf
000002a0: 9783 1d65 261c 963f d5b8 d37d 618d 84bf
000002b0: 5718 35ca 3d5e 823f a59f 67ab 4e9a 863f
000002c0: 38c2 5149 2db3 84bf 5e3d 32a5 7a6a 93bf
000002d0: da70 98dc 2d39 92bf 2f56 4e30 845d 80bf
000002e0: f7a1 234d 7534 623f fc90 918b fa7d 6b3f
000002f0: bed5 24b5 cdef 5ebf 38b4 1f94 3d47 51bf
00000300: 4e04 0970 c0ef 833f c1db 1dc8 5c70 7f3f
00000310: eaed 4330 01f8 6e3f 25b8 10fc f43f 79bf
00000320: 7f2f a7b3 fcd3 7f3f 612a feef e6b6 5d3f
00000330: dbc4 381e 7c9f 7ebf 17d4 496c 409d 77bf
00000340: 8632 7faa d924 893f 8446 f83a 74e2 923f
00000350: d79b 4e0a 36af 75bf c3b2 4984 b544 95bf
00000360: d181 0218 a20b 783f d33f 45c9 b07f 82bf
00000370: 9560 3bde dbfc 7d3f 12fe 1ad6 80be 6ebf
00000380: 4ad2 ddf0 01d0 963f 6f07 3adf 275c 523f
00000390: ec0a 5f90 917a 823f 45b9 47f3 69dd 88bf
000003a0: fc4d df5e d4da 9cbf ff10 1fe6 4a39 563f
000003b0: c0f0 80d4 9672 653f c5d8 755e 0f7e 7d3f
000003c0: 0438 eb44 cda9 76bf d5e4 1df5 0671 8abf
000003d0: 79b1 21c4 2761 90bf 5e99 9dde b6a4 763f
000003e0: 9190 69b1 6513 7d3f 5701 712f b7ec 81bf
000003f0: 0d9f dbd0 e69d 75bf e0ab 5970 ffce 7dbf
00000400: 1357 d815 9465 93bf 2473 7812 0d52 603f
00000410: 01e1 5fee c44f 813f 53b8 78fb e032 62bf
00000420: 0adb 9a7c d71a 8dbf d7b4 5365 2942 60bf
00000430: 6c1a 936a 1ef1 8b3f c2cf 475e 61cc 953f
00000440: 358d 96a7 1603 663f 2e29 c92c 2625 80bf
00000450: bae9 5c6f e451 94bf ffb3 c4f4 aea4 8fbf
00000460: 44c5 95f9 e6da 4cbf 9cb4 9a39 4896 623f
00000470: 42da 07c1 d6ee 643f a09b 30ae ca87 65bf
00000480: 9590 8f91 1196 8fbf 5901 f6d3 cb22 90bf
00000490: 235d 30f3 d31a 583f e393 c6b1 7de0 80bf
000004a0: 50d4 f133 8cb1 8a3f 394f 587f 74dc 8dbf
000004b0: 8c30 1423 2344 913f a031 a1a0 a344 7bbf
000004c0: 09ab abcc d24a 623f 489f 1e19 014c 623f
000004d0: c564 3015 8e2d 6cbf 6793 ff5a e59a 94bf
000004e0: aff5 3bc0 afc2 73bf 4b08 e2af 1f2d 8f3f
000004f0: fe8a 554c df35 8abf 9ae2 1dd7 0cdb 92bf
00000500: 3352 fa55 e9ea 61bf 75f8 b54e 2ae7 70bf
00000510: a57f 70ab 917a 8abf 4009 8e7f 00cd 7ebf
00000520: 033f 3c79 c2b2 73bf b6a4 2777 c7e2 70bf
00000530: e8d6 e9a8 c49c 5a3f a216 07c7 4eef 7c3f
00000540: 00d5 31cc c8a8 6f3f 9cb6 1f01 acfa 6b3f
00000550: 661a 9b99 5431 913f 6dec 685f c968 863f
00000560: 45d9 6c9b 2dcf 9dbf 7cd4 5345 96ca 6dbf
00000570: d54f 3635 5122 90bf d4e8 7d37 e82f 7cbf
00000580: 3c7e c798 c888 7f3f e7d7 4829 447f 60bf
00000590: bc44 d67c 3b8c 71bf b1b5 05e6 f5f7 8a3f
000005a0: e445 b370 c2c8 8ebf 68ff 8610 6a76 4ebf
000005b0: 95c3 e33e 4a78 763f 178d e700 e948 303f
000005c0: da1c 64d8 accd 87bf 34f4 17c1 9de1 2dbf
000005d0: 8726 cbd7 b086 803f c861 c398 d433 6d3f
000005e0: a342 a8d4 a605 6a3f 3471 54d6 5b28 693f
000005f0: f272 5208 f322 563f d541 6f16 2668 89bf
00000600: 81e6 2ddf 314d 69bf 06bb e5e1 99b6 713f
00000610: 0882 bfcb a6df 9fbf 5133 bbd2 221f 7f3f
00000620: 7c85 c5dd ded6 6b3f 491c 8bb1 3a35 86bf
00000630: e1ea 4537 f779 7ebf cb5f a760 c6a5 60bf
00000640: 8b92 c498 43ea 703f d579 1d2a a37b 6ebf
00000650: acdc f567 08df 873f 139a 387a f7ef 703f
00000660: 504d 023b e71c 80bf 7f24 1178 5730 73bf
00000670: fb9d 258d c26b 623f 3ff5 36f4 9dd3 7d3f
00000680: 51a3 417a 36d6 7b3f 26e5 8ca2 950e 50bf
00000690: 827a f17c e569 583f 1f8a 9ca2 d7a7 30bf
000006a0: e72c 5a12 3dca 803f 1832 e69c 662f 84bf
000006b0: baaa 4031 b6ac 783f 0107 e3b0 cff4 92bf
000006c0: 17aa e319 ac82 723f 5ef5 d457 e6f8 643f
000006d0: 472b 639c 2398 c6be 2952 8716 2cd4 95bf
000006e0: 9f82 9339 0504 903f a397 75d5 c569 823f
000006f0: 6c2d c315 024b 333f 51b4 69e2 e2bc 723f
00000700: db9f d213 2f3a 83bf 04a0 6fe0 a5f2 743f
00000710: 80f9 3f27 6505 903f a61b 9da2 5d17 88bf
00000720: 385d 693f 418f 9b3f 9767 8f10 29db 71bf
00000730: f559 5143 4ded 803f 6fd2 1d4f f9e7 80bf
00000740: d337 72d8 2df3 6f3f e322 17f9 7613 8abf
00000750: 752c 89e5 5dff 7abf 023e 1b3d eec1 62bf
00000760: bd25 bd53 3fdb 7abf dc51 75c2 fd89 63bf
00000770: 2745 260e 39f9 833f 8259 e1bc e31a 8abf
00000780: 771f be0d fe71 88bf 87ca afea 2386 3f3f
00000790: 86ec 4b66 a415 77bf 8c3e 4d2c e487 84bf
000007a0: b7ea a3ce 9d80 553f 94e0 3062 ea0e 77bf
000007b0: d139 130f b47d 6b3f 26e8 54ea 2efc 39bf
000007c0: 5c18 0157 d44f 60bf 5c17 f61c 9a44 46bf
000007d0: 2916 4d00 a1ef 843f 80b8 9c68 e3e4 8a3f
000007e0: 93bf 0eb0 912d 5abf d70f a5d6 2916 85bf
000007f0: 5a01 a96b fdee 8ebf 5733 4d8e 8fdb 96bf

b1 f8 [64]
-7.192471809721996e-05 0.005722828720333815 -0.00013534761897658786 0.004596481389402467 0.006619888738398065 -0.000966248571176303 0.003800634465246324 -0.0002751025407769342
-0.0009515728932309412 0.004058315882178712 -0.0006576221269079632 0.0011537858720017003 -0.0005747226588913836 -0.0015084539534046077 -0.001917864345081947 9.489555610616476e-05
2.34864732008655e-07 -0.0003591111051656828 -0.00029461204579441007 -0.0001072356068409722 -0.0005855127084150744 8.052944402412887e-06 -0.0003509335379766421 7.053073411563836e-05
2.4118084573396563e-05 -0.000428290042079335 5.58238393020683e-05 0.0005835506884704293 -0.0011748368818278818 1.76135922041502e-05 0.008252159174512445 -0.0006241007756513304
-0.00031699986642942044 -0.0004414069098540411 0.018984598191667756 0.00195256653529674 -8.431054875126732e-05 -0.0004055895997402778 -0.00017925035548439192 6.271105200551673e-05
-0.0003440870521762708 -0.000154025809984714 -0.0008498136985537174 -4.836053619542817e-05 -0.00011797927880969182 0.012743794660700879 -0.00010004856892609231 -0.0008081334328408207
0.008019892965783763 0.00374181561852449 0.00014338022233584315 0.0002570465829684131 -0.0008896335200310947 0.0011232848332723797 -3.785464565145562e-05 1.2026234874922816e-05
0.004789134063373746 5.9732657990106455e-05 -8.119454143031929e-05 -3.0993307693653826e-05 -0.00023590765129218665 -0.0003519559078981495 -1.0693553328049762e-05 4.443844543289358e-06
00000000: 8a57 7d3f c9da 12bf 8b70 1c23 d270 773f
00000010: 3d8e b631 83bd 21bf 5f10 e893 c2d3 723f
00000020: ab3b 27da 741d 7b3f fb46 aa01 7ba9 4fbf
00000030: 9edd 6e17 8222 6f3f d73a 6a6a 7407 32bf
00000040: da55 643a 5f2e 4fbf d04b dadf 739f 703f
00000050: 5eea 9bc3 888c 45bf cdb0 8e25 54e7 523f
00000060: ed44 1983 1fd5 42bf 2cea 6e19 eab6 58bf
00000070: de88 fa28 1b6c 5fbf bcb5 733d 55e0 183f
00000080: 4f40 c707 e485 8f3e 6b0c cb73 e288 37bf
00000090: 09a9 081a c54e 33bf 7e76 88b2 751c 1cbf
000000a0: 8d76 8ef7 a22f 43bf 4ee2 4340 64e3 e03e
000000b0: a5f6 9411 b0ff 36bf d056 1ac9 3c7d 123f
000000c0: 8da3 d926 264a f93e cbaf 53b9 8311 3cbf
000000d0: b697 5b83 8c44 0d3f c659 af8f 2d1f 433f
000000e0: a8d4 137f 9f3f 53bf 4744 f7d6 1c78 f23e
000000f0: 2214 350e 82e6 803f c1c7 dd35 5673 44bf
00000100: 8f80 240f 60c6 34bf bf16 f73d 94ed 3cbf
00000110: 6093 71d1 b270 933f ff29 645a a8fd 5f3f
00000120: 03e7 c832 fc19 16bf 9ffa 0411 aa94 3abf
00000130: 2ab1 46d4 a47e 27bf a503 7bab 7770 103f
00000140: 0dc1 d5a2 d28c 36bf 1993 1ca2 3f30 24bf
00000150: eb66 8005 c1d8 4bbf 7795 fa5e d75a 09bf
00000160: 2631 8d93 74ed 1ebf 4c71 5b2a 6b19 8a3f
00000170: 0ca0 8153 253a 1abf 7bfc 1955 1d7b 4abf
00000180: 822f 0bd0 bb6c 803f fef7 b1f6 27a7 6e3f
00000190: 1180 4dbb 0acb 223f 7996 daaa 86d8 303f
000001a0: bae2 dd6f c926 4dbf ad31 dfe7 6567 523f
000001b0: a011 79b8 c3d8 03bf b3be aa22 8938 e93e
000001c0: 5a85 da62 c59d 733f de0b 2580 2e51 0f3f
000001d0: ac86 a899 df48 15bf 2b0f 8af1 d93f 00bf
000001e0: e7aa 5a4b bfeb 2ebf 36cf 321d d710 37bf
000001f0: 60f1 3ec7 0e6d e6be 6000 d5af 8aa3 d23e

W2 f8 [64, 25]
-0.012210660391662184 -0.016541871316945612 0.026561043166312928 -0.00010745977477934493 0.0100332938221487 0.006659923651172803 0.017712853279989896 -0.0005616593196920386
-0.02376401281149466 -0.012510539142304173 -0.002095287805921994 -0.005828494807115685 0.0061782714133862245 -0.004789397941063054 0.018869376247345564 -0.006259764461244965
0.004063635072933264 -0.015087254765399932 0.010019498687201598 -0.015821018525622392 0.0010824734375980143 -0.0016758033244127755 -0.012869809303707236 -0.008750033066313102
0.004172070654199635 -0.007047782084871207 0.005281535197374802 -0.005236369843987199 0.002397704334762229 -0.0064684149788309985 0.007610382402369028 -0.004769004455448988
-0.012626942871437145 0.0024409512459935214 0.009742521842422452 -0.007087649113880852 -0.001477986779893739 -0.004048209332171624 0.009269223601965375 -0.0069869772637246915
-0.008574095245004448 -0.007464175019340637 0.007602839443547227 -0.0022332028378174197 0.008457551096597586 -0.00249243033488873 -0.0002960441543775994 -0.009502799302818212
-0.0015853501549619442 -0.015791624821565046 0.0012321436469649482 -0.01011061251112158 0.0003203196319536809 0.0013766749253462957 0.0056141852381122155 -0.0009737470499042298
-0.004582945202553027 0.022161705152821353 0.013196639564702434 0.0038305218362613912 -0.010221535841927781 0.004870493276249425 -0.009009450101144626 0.009284865573292717
-0.002929535321769792 -0.001285449332755486 0.01726044923576331 0.012924107176902375 0.004786457915269899 -0.0023527494238410793 -0.011945929634505435 0.009609405682330907
-0.0004675101482324866 -0.00044579502336125414 -0.02040280292927205 -0.010999638003770391 -0.020056385522737977 0.0005392340661031868 -0.001272236080697262 -0.018313291506142453
-0.0006310543797911136 -0.009062791089397691 -0.02451671749514291 0.005091996440878338 0.019046676632512884 -0.006541997914467766 0.006114366904129579 -0.00046843562737063413
-0.00417146754319509 0.02128457608124383 -0.011827486498826175 0.006509549730889392 -0.013110628423315184 -0.0111053191841067 0.007130777449223759 -0.009985451067520258
-0.00028429366903507026 -0.0055571227999451816 0.0020892782390547313 -0.007271891193960193 0.004476209042442103 -0.009698809285184037 -0.0007971029260767418 -0.00394043527878161
-0.011622834335027974 -0.014052485992903367 -0.006684136725483228 -0.024205815447536205 0.022711797241807684 0.008834348427917632 0.003937256154425909 0.016654765084534163
-0.02259971112965265 0.006626538645648927 -0.016059662576497685 0.0029856022898707662 -0.0010653159798814963 -0.016726526679292173 0.006255614500637694 0.011004636640815663
0.0023802817377572985 0.0013418834868363216 0.001186690276981407 -0.013723970965916196 -0.0008590194435558552 0.0070761223499697925 0.003005329833714143 0.015584190414978286
0.001931635016922675 -0.009059790850112982 0.004117854518307269 0.006503862193941719 -0.004700197118622058 0.0059954748170725995 0.008176272659893444 -0.005855670816158925
0.008052898390009262 0.010129538309459379 -0.011866107768432088 -0.00028623861907969985 0.007732849057479766 0.0009878457990883675 0.007829336306897678 -0.004494807440146201
-0.012471473366946775 0.0012700489291540178 -0.019718261814152926 0.002736747158229422 0.014919530659122682 0.003866051672442789 -0.004436008170396108 -0.006514159866349991
-0.000754816976749733 0.020314633091846914 0.007631333929524711 -0.00142861351923216 -0.0039501828260647565 0.0016348869346503756 0.01817473232178451 -0.01035168104347664
-0.0072100082650646165 -0.0056949872431742085 -0.0010272215934087937 0.0029680608707248553 0.019191632860728672 0.006646526437551211 -0.016812228349212144 -0.01423611435655543
-0.0027809579019263176 0.0002766790961495344 0.0035331282148576607 -0.007016885460191185 -0.0029451838114674203 -0.011890754746540262 -0.01044094568998076 -0.0007392876805578659
0.009891949131892858 -0.012922240635448003 0.010734234048632189 -0.002576108484440665 -0.00869453743773451 0.007197302802955213 -0.002922731803253132 0.0018285873394645494
-0.0019025859823739502 -0.0017601840307989918 -0.0018930140847792864 0.005267988189634715 -0.008278559638143975 0.012764407052761988 0.008985969434287177 0.007151294268907276
0.003981508579074968 0.002207427718603121 0.012486377755028904 0.008611923841466997 0.002631368623806459 0.0039605539011903475 0.015837860446379862 0.016372153026513094
0.014574796896756259 -0.0016484427721185852 0.01472899262289673 -0.0023752665574164524 0.00902573386269772 0.0061234968403719205 -0.00035638776781923056 0.006828551534006319
0.008033717020263826 -0.002354158358075034 0.0014928273733065866 -0.009394551539522015 0.025423987166582923 -0.007648746312918176 0.0047936064603815555 0.0013046811084509995
0.01037358275144674 -0.0049605996848807055 0.010047813792707427 0.013878622675431704 0.003439837499654327 -0.0032627338320644645 0.006224141079386242 -0.011502127040873895
0.0017013132320308176 0.01316412776383144 0.002068856141284806 -0.02244999294903946 -0.007249695448367589 -0.000419638819849998 -0.004100531937369541 -0.01909306993467238
-0.01242489131209991 0.007853532092886056 0.0004712932322210308 -0.026338648578191216 0.009775263574389915 -0.0024068876442561735 -0.0012057386187078558 -0.013006975958612173
0.004665926212166091 -0.00729826031714191 -0.003376383381330769 -0.011615266008058553 -0.02178722185063797 0.013106860594416087 -0.01100162011301296 -0.007974289870678164
-0.0007382917437101829 0.007025502958777823 -0.005813053704676875 0.0048721733784960145 0.01818357619005057 0.003998428885603952 -0.006491016105134233 0.011514199482302135
00000000: bea6 5b18 e701 89bf bd9f 4831 5af0 90bf
00000010: a4e2 fc6e d132 9b3f d164 8ddf 802b 1cbf
00000020: cbc3 b2e6 558c 843f ca09 69a4 6f47 7b3f
00000030: b1c1 3976 5123 923f dad1 6c34 8a67 42bf
00000040: c36c 63e7 9755 98bf 8aae c523 209f 89bf
00000050: 79c0 4413 232a 61bf 12b1 4da9 9edf 77bf
00000060: fd2f a91a 634e 793f 97ec 6338 0c9e 73bf
00000070: cb58 8367 7e52 933f e671 44ba d6a3 79bf
00000080: eda7 dbbb 07a5 703f 7035 6e0e 11e6 8ebf
00000090: 2584 7859 1a85 843f aeb9 a094 6233 90bf
000000a0: 8273 d900 39bc 513f 75ae 431e d474 5bbf
000000b0: a07c 8590 7c5b 8abf 9aaf de8e 89eb 81bf
000000c0: dc20 43b0 bb16 713f 6d8e 0599 22de 7cbf
000000d0: 5159 204f 17a2 753f daca ac53 bb72 75bf
000000e0: 9847 81b6 59a4 633f 0515 a8ec 9f7e 7abf
000000f0: 22a0 7378 102c 7f3f 4ce8 bae2 a988 73bf
00000100: 6f44 7395 27dc 89bf f1bb b9b8 0bff 633f
00000110: 56d7 8c25 e3f3 833f a2ee 6452 f007 7dbf
00000120: d94f 8c38 2037 58bf e44d 06eb da94 70bf
00000130: 8988 d621 befb 823f a68c 876d 609e 7cbf
00000140: 9654 5c95 4b8f 81bf a852 9839 c192 7ebf
00000150: 00b5 44ac 2724 7f3f 889a eba4 5d4b 62bf
00000160: e9bf e94a 3152 813f 9c37 d458 016b 64bf
00000170: b9c2 12f6 cb66 33bf 5bf6 ce21 3476 83bf
00000180: 7b89 5ec4 70f9 59bf c125 a300 ae2b 90bf
00000190: 0f69 bb2a fc2f 543f 5053 9f70 dfb4 84bf
000001a0: d420 f057 12fe 343f 887f 0572 318e 563f
000001b0: 1daf dc5f e6fe 763f 79ee f0dd 61e8 4fbf
000001c0: 37ad 3afc 90c5 72bf 437b 6bdb 8eb1 963f
000001d0: 50ac c7fa d606 8b3f b36a 6dc0 2f61 6f3f
000001e0: 106e 3f51 07ef 84bf 6bdb 6315 15f3 733f
000001f0: 029c 50ec 8b73 82bf 1d61 e18f f103 833f
00000200: 4886 c84c aeff 67bf 0a05 12b6 900f 55bf
00000210: c06f ed23 b9ac 913f f204 3d4d f477 8a3f
00000220: 1432 5b03 f79a 733f ab35 98ba 1246 63bf
00000230: 6cdc cd88 1b77 88bf b3ea 1d99 18ae 833f
00000240: 08bc 15cc 84a3 3ebf da55 ca0b 3337 3dbf
00000250: d1d3 4fed 78e4 94bf 57c7 f36b fa86 86bf
00000260: 71a2 953f a989 94bf 51fe e256 6cab 413f
00000270: f52d 0017 25d8 54bf 9b6b 6730 b8c0 92bf
00000280: 3b6e 2bf6 aaad 44bf 0c2e b73a 838f 82bf
00000290: 553c 630f e91a 99bf 936f f562 58db 743f
000002a0: d7bf efd4 f880 933f 987f 7d31 c8cb 7abf
000002b0: 7744 39de 600b 793f 3d97 28b3 0bb3 3ebf
000002c0: 8721 caca 1916 71bf 2c71 b6b8 9fcb 953f
000002d0: 9195 a65d 0239 88bf 2e2f 4bf3 c1a9 7a3f
000002e0: a615 77c2 bed9 8abf adb6 a8b5 62be 86bf
000002f0: 0f12 087f 2935 7d3f 479d 2a8e 4073 84bf
00000300: 23a2 ce02 a8a1 32bf 354d f8ca 10c3 76bf
00000310: 5900 b0b6 881d 613f ebe5 ba6d 21c9 7dbf
00000320: b356 2837 a555 723f 2b22 8525 f8dc 83bf
00000330: 2cb9 e07f 951e 4abf 6a4e 788a d823 70bf
00000340: 7f9e d86a b6cd 87bf 5cda 22be 8cc7 8cbf
00000350: b703 354a d360 7bbf c376 e1c6 68c9 98bf
00000360: d63b 8ce9 c241 973f 7d8f a22c be17 823f
00000370: b72e b526 8320 703f cd4a 715d f20d 913f
00000380: 22ba cdf0 6024 97bf b3c4 4cec 6d24 7b3f
00000390: b812 34b6 f171 90bf f714 3406 4375 683f
000003a0: 91a8 c852 4274 51bf b9bf 4034 c220 91bf
000003b0: 645d 25bb 7c9f 793f 9036 d053 9989 863f
000003c0: 2281 0107 d07f 633f b86a 396c 44fc 553f
000003d0: 9f06 87fb 5671 533f d847 c233 501b 8cbf
000003e0: 4871 5635 fa25 4cbf ffb7 3521 dafb 7c3f
000003f0: e610 2f2b a29e 683f 88f3 55a1 9aea 8f3f
00000400: 0b73 6e4e dda5 5f3f ba57 478b f08d 82bf
00000410: 88e6 c527 e2dd 703f fb10 bb36 cba3 7a3f
00000420: 2e3a 8c8e 8340 73bf 5a8d 3604 b68e 783f
00000430: d85b 6bbd b8be 803f 9fb9 6caa 1dfc 77bf
00000440: 17e9 c8b9 097e 803f 3606 1a9e cbbe 843f
00000450: 73ac 5e06 424d 88bf 1b26 ff81 49c2 32bf
00000460: 2a92 e8dc 7aac 7f3f 8707 a359 532f 503f
00000470: 579f 19bb d308 803f 90e0 50af 2569 72bf
00000480: 48a7 f3d1 a48a 89bf 54c1 5ca7 f8ce 543f
00000490: 40c5 8026 0631 94bf 9432 58f1 5f6b 663f
000004a0: cd53 0582 218e 8e3f dbe0 edaf b2ab 6f3f
000004b0: 6328 44e0 7d2b 72bf a9e5 6379 97ae 7abf
000004c0: 2db8 631d ddbb 48bf 87f4 09f3 5bcd 943f
000004d0: 5043 6f9a 0842 7f3f a399 ff15 0a68 57bf
000004e0: 9296 d120 112e 70bf 4cd1 af7a 36c9 5a3f
000004f0: cf12 bea3 659c 923f d0a5 521c 4333 85bf
00000500: 34cb 3cdb 3d88 7dbf 187f 5e7f a053 77bf
00000510: 155b 90c9 7ad4 50bf d1e2 e98b 7950 683f
00000520: 4184 f9ad f8a6 933f c987 e65a 6339 7b3f
00000530: e022 bb8b 3937 91bf 670d abec d227 8dbf
00000540: cdc0 b067 17c8 66bf fb03 61ab e721 323f
00000550: 4b1a 55c4 81f1 6c3f 790a 24d9 bcbd 7cbf
00000560: 95ac d484 7f20 68bf 57d4 1616 2e5a 88bf
00000570: 78e4 3802 1062 85bf 06c0 8534 9839 48bf
00000580: 4a14 1ff0 3a42 843f c1c1 5cc7 f976 8abf
00000590: cfeb 7d81 d4fb 853f e7c1 21b6 7d1a 65bf
000005a0: fc61 970f 71ce 81bf b995 8742 eb7a 7d3f
000005b0: 6885 51b0 69f1 67bf ce4b 89b4 a6f5 5d3f
000005c0: 9bae 9d24 062c 5fbf 59e7 3836 bfd6 5cbf
000005d0: 618c 7065 e003 5fbf 14d7 d7cf e293 753f
000005e0: d102 3b77 59f4 80bf 1c6c c1b6 3924 8a3f
000005f0: 33b5 be66 3c67 823f 92fb 24f0 ac4a 7d3f
00000600: 7586 2c12 ea4e 703f a488 82bb 4f15 623f
00000610: b6a9 d340 7592 893f eeb6 09da 20a3 813f
00000620: 5ee2 da45 618e 653f 9dad ac17 f138 703f
00000630: 918d 9fd2 cc37 903f 4784 4197 dcc3 903f
00000640: 13a8 2320 64d9 8d3f 64bb eaf2 1102 5bbf
00000650: 406a f2ec 3b2a 8e3f ac4c de85 4b75 63bf
00000660: 5cfb 197e 157c 823f 6437 aaaa f314 793f
00000670: 6fe1 b6ce 315b 37bf 161f 4858 41f8 7b3f
00000680: 1756 f03e fb73 803f b98b 0a25 0749 63bf
00000690: 14a0 cd2f 5f75 583f 2290 fb5c 733d 83bf
000006a0: c857 a8e5 be08 9a3f c165 4fb4 4a54 7fbf
000006b0: 2dbf a2ef 75a2 733f fd04 52ac 3a60 553f
000006c0: 454c 47b5 be3e 853f f24a a4d6 9051 74bf
000006d0: a67a 16bd f293 843f f838 0934 656c 8c3f
000006e0: 92f4 10b2 dc2d 6c3f 442d 56e3 72ba 6abf
000006f0: 4741 1b26 7c7e 793f e4c7 cc5b 6d8e 87bf
00000700: f0d9 462c d3df 5b3f 70e4 ce51 cbf5 8a3f
00000710: d43a f1ae b4f2 603f 18d5 0b86 21fd 96bf
00000720: db09 b54d dbb1 7dbf 552a e401 5f80 3bbf
00000730: 4846 1329 b8cb 70bf 5673 cc3b 228d 93bf
00000740: 090e bcae 3872 89bf f0eb f93b 8315 803f
00000750: ef4d eb04 fde2 3e3f 1a82 0ec9 84f8 9abf
00000760: 67ef e4aa 0d05 843f 8285 f3f6 9bb7 63bf
00000770: aafb d4fb 3bc1 53bf 6493 e5c2 66a3 8abf
00000780: 70f1 c907 941c 733f 2fbd 13d6 c7e4 7dbf
00000790: 604a 7306 caa8 6bbf d892 1c9d bec9 87bf
000007a0: dfd8 46b5 634f 96bf aa98 d90c c5d7 8a3f
000007b0: 760e b574 0488 86bf 4089 a011 d354 80bf
000007c0: 263f 7372 3d31 48bf 1f6a 2217 c6c6 7c3f
000007d0: 75db d2b8 6dcf 77bf 1a27 2315 d8f4 733f
000007e0: b10b 3e24 b79e 923f 63e9 c814 a860 703f
000007f0: 6cd2 3ade 5296 7abf ba96 bab1 c194 873f

b2 f8 [25]
-0.1088746986480895 -0.14385409871869742 -0.1522908783015537 -0.12950833622339147 -0.1011018088722485 -0.10891066673518619 -0.14377927822979875 -0.15225601198171682
-0.12954727008851288 -0.10112347188881105 -0.10887922299989879 -0.1438280799822506 -0.15221878494774274 -0.12954565586919342 -0.10111373850751584 -0.10888497298166433
-0.1437854679545406 -0.15223251674193966 -0.12947599896751705 -0.10107995155291175 -0.10887462380329786 -0.14381231689623247 -0.152209688618942 -0.12950180072960377
-0.10111279623833477
00000000: af2e 0e56 36df bbbf e238 b2a4 cf69 c2bf
00000010: 9663 e47a 447e c3bf 76c5 51aa ba93 c0bf
00000020: 5739 ace2 cee1 b9bf 8d2c d0c7 91e1 bbbf
00000030: c473 eb00 5c67 c2bf 8d59 0a00 207d c3bf
00000040: 9d7a 2844 0195 c0bf c4d3 9e54 3ae3 b9bf
00000050: d59a ff3d 82df bbbf 2e97 e261 f568 c2bf
00000060: 1ffd 97b7 e77b c3bf f005 a6b9 f394 c0bf
00000070: 62ea 1008 97e2 b9bf 606a fbb5 e2df bbbf
00000080: 8c9d 40ed 8f67 c2bf 02af 65e8 5a7c c3bf
00000090: 6459 9766 ab92 c0bf 1276 332e 60e0 b9bf
000000a0: b376 9914 35df bbbf 4268 ea26 7168 c2bf
000000b0: 7358 6069 9b7b c3bf 9e10 74d7 8393 c0bf
000000c0: 96fe 0c39 87e2 b9bf
