results/transition_training/transition_model.npz (npz, 6016 bytes, 2 tensors)

W f8 [24, 25]
0.0032549691725154337 -0.0039811204793509195 0.004147429764554917 0.004905161296843294 -0.012751303862169428 0.005756709972676624 0.011200109629100891 0.007812597553283169
-0.003872378913018717 -0.01950825955942365 -0.0005378431664458227 0.0034721785062178886 -0.01682784866346912 0.0025544076550265233 -0.015384863466619346 -0.004048784314177336
-0.0024765986563615094 -0.0027991683098468664 0.007380569813596307 -0.0004620808534961829 0.004414881068891871 0.010572723687241027 -0.0037504053721717353 0.00399955589523651
-0.0014181462123326288 0.0004837373538023772 -0.006549375672424402 -0.008531431894198188 -0.00535994851987092 0.0019976780560223926 -0.010296258836907995 -0.0011105548877057764
-0.0007270198881459755 0.004484745998309376 0.0015452283793905893 0.0030557814713745974 -0.0055612022657002625 -0.000744490523645948 0.006772166605477732 0.014540160588309772
-0.013164275831914908 0.016091057253099946 0.014185826431174517 0.006983044577987521 0.0026534480873387197 -0.00341159848510859 0.015386184762410493 0.020048775773213772
0.017081558269245022 0.012953819107086961 0.014910565491294487 -0.02041068836929248 -0.012850010380311881 0.0063450100084896845 -0.0004400172333628459 0.013190299341604421
-0.004616751641372608 -0.007387837021085554 -0.01203286398481754 0.008094298877983408 0.005656191495414787 -0.022665918139975438 0.001154189465186651 -0.0033199942901860403
0.014939828594107085 0.00919308729164067 0.004181925568057997 -0.0020661543221471945 0.006760389016058208 -0.009252127228153106 0.009556153709709433 -0.0004533925315149439
-0.0034201957822884645 -0.00477332976168482 0.0314243457286839 0.0006961388110049373 -0.012251464842855398 -0.007296108217057966 -0.0032064272845459484 0.035554448305938124
0.010549484752124517 -0.014181048377888484 -0.020439106677378725 -0.011906556326808856 0.00982400551113385 0.013962306848228564 -0.007897714676873288 -0.009802523795059527
-0.007730515215252705 0.03095086353968975 0.009694787007191388 0.0007295079575897016 -0.02207210421349813 -0.008987494425167532 0.02195303989456816 0.01643595565694366
-0.004804030473688256 -0.02160438294217901 -0.011442516631605858 0.008142953863279515 0.0065039732605488305 0.008437130652098359 -0.0038008461579337005 -0.01064420723126882
0.010945479359675913 -0.01175777718736117 -0.008716284628768538 0.003996289720409496 -0.022269255855918716 0.006899713901937492 -0.004736319776181192 -0.0009467123952655225
-0.003326270269007429 0.0025195340495667937 0.009090614393461136 -0.006143944828267687 0.012000196795500996 0.00499277796335015 0.008609727917740437 0.014007012623836692
0.008688290821189805 0.007008517700742766 -0.0011833194076925364 -0.013744331716242075 0.0013746318607032826 -0.11891327406849479 -0.15014939866285398 -0.14186724869420264
-0.13365646385538124 -0.11919935590390639 -0.12416960047079213 -0.13598867522432906 -0.14252109870631818 -0.11665773649089961 -0.10680075480088055 -0.1051055724324648
-0.1289266647798458 -0.1383417986500254 -0.14714186732854206 -0.10035920486786809 -0.10885272091142487 -0.13859336340918987 -0.14356539452761222 -0.12433614304883787
-0.10642605012524524 -0.11871309645048014 -0.15340850811365078 -0.14558924819933383 -0.1333324591596779 -0.09884062709770418 0.0015741196761275853 -0.0018740058075473111
-0.009537409754303604 -0.0014228865605259476 -0.004934105335686373 -0.0042188784532756875 0.004199384299793636 -0.003019451758414424 -0.010645367218178848 -0.023416787526901295
0.011302061583003361 0.000558346204440399 -0.005546091285060523 0.0011200576402994088 0.008685593816259968 0.002920126490994223 0.0018735203920376992 -0.013933146702842148
0.014325647839832633 0.000326403517752735 0.01478161148802752 9.78076833103565e-06 0.004063212893778899 0.00221310736287305 4.133200600307232e-05 -0.0022368115500290705
-0.01446131778665154 0.011693251353019263 -0.01959294450466597 -0.003284365486219703 -0.0030618470279070134 -0.010396394078735528 0.007705286081524302 -0.0018002403779323398
-0.005756650106937322 0.004281928805925634 -0.004837991373557 0.01555353379852897 0.003205422970567331 -0.005277745097472187 -0.020207676935299786 -0.012964228862598254
0.012346700545050559 -0.0002529064302079954 -0.0033417419465953647 0.015771010498094564 -0.012933479277430708 -0.004203399488316828 -0.00447564987715783 0.005115933443127635
0.0039375524383307966 -0.014302006270264402 -0.027958756155474593 0.007606672729826172 0.01930664709688753 0.003892197678046283 -0.006913963345669247 -0.0263365080591305
-0.004524352620418182 0.027232240549379096 0.01085386508140411 0.012776601658319071 -0.0228757699392667 0.007916561206007417 0.00867329824262058 0.016672003203756402
-0.011094955194856145 -0.019861617393789693 -0.007790097644804138 0.042083486514031605 0.007781980398574685 -0.027162578304681804 -0.01894852306935141 0.008414296975753072
0.006911696383077089 0.0011695739523382195 -0.0069794113725242 -0.001559568338921351 0.009651243153768368 -0.0003258761368872212 -0.011879442448501256 -0.023899999332460273
0.01038699092949567 0.023195664913251868 -0.00030310005220865195 -0.01705278584327159 -0.023829565932787247 -0.006454025445746872 -0.013033796668226058 -0.0025485426158541207
0.0004128552846659202 -0.013835431761536635 0.00833727344140235 0.006114678299315817 0.019864701179092243 -0.006037416517517534 -0.016418668836232962 0.02088564187509257
0.005814833067916852 -0.003269428042848846 0.003202626889209198 0.0024440420520304464 0.011247402796001168 -0.010354725862340146 0.004956779881940544 0.009380026372213284
00000000: eb75 a744 2aaa 6a3f daf9 29e4 814e 70bf
00000010: d432 3833 e5fc 703f a3ef 9f35 6f17 743f
00000020: 1a15 8e08 5b1d 8abf 7612 0b11 5994 773f
00000030: bd7f 8c44 15f0 863f ddc0 e717 0d00 803f
00000040: ec98 4099 f7b8 6fbf d108 3d23 f9f9 93bf
00000050: 66a9 b667 c19f 41bf 759d 29a4 af71 6c3f
00000060: a8c1 afce 513b 91bf 9603 d92a fbec 643f
00000070: 6c5a 8a6b 1982 8fbf 8fb8 7c43 7595 70bf
00000080: ee1f 80c7 cd49 64bf 4ceb 180b 48ee 66bf
00000090: 4296 9a9f 163b 7e3f 3347 6427 6e48 3ebf
000000a0: 7dea e79c 5615 723f f412 bbf3 26a7 853f
000000b0: de71 728d 2bb9 6ebf 9e0a 4c9c d661 703f
000000c0: 6e28 96e6 223c 57bf 3699 4b1d c4b3 3f3f
000000d0: ee0f 28a5 84d3 7abf ddff c967 ed78 81bf
000000e0: b80f 9e39 50f4 75bf 54c9 643d 6f5d 603f
000000f0: 832c ce77 3416 85bf df38 143b 0132 52bf
00000100: 3d09 5252 afd2 47bf 6e35 4cd6 985e 723f
00000110: 1867 ad56 2851 593f 9b00 772f 7008 693f
00000120: a9d3 b8dd 57c7 76bf 0e46 c239 3d65 48bf
00000130: 6e58 7fa1 21bd 7b3f 889d a451 3bc7 8d3f
00000140: 3487 6331 dff5 8abf 8ff8 a392 2c7a 903f
00000150: 0b82 b564 750d 8d3f 2968 6cc1 409a 7c3f
00000160: 3a53 3718 afbc 653f 97c1 75fd a3f2 6bbf
00000170: c00a ebc2 ca82 8f3f 0b4a 1591 aa87 943f
00000180: d345 86f8 d37d 913f d3ca 622b 8887 8a3f
00000190: 9d26 3339 6e89 8e3f 3bcc 231c 8ae6 94bf
000001a0: cc8f b132 1b51 8abf 3608 aba7 39fd 793f
000001b0: 2618 81a0 43d6 3cbf 7c85 5f02 8403 8b3f
000001c0: cee3 03d5 03e9 72bf dbc2 4c66 b542 7ebf
000001d0: 1108 56aa afa4 88bf c04b b867 be93 803f
000001e0: 342e e257 f22a 773f e37c 9404 bc35 97bf
000001f0: 3746 6880 05e9 523f 0db4 c65c 8832 6bbf
00000200: e09b c1d9 c598 8e3f af8c 224a d3d3 823f
00000210: 252d c918 1121 713f 1760 bf27 0aed 60bf
00000220: 571f b71b c8b0 7b3f 6023 e87e c7f2 82bf
00000230: 4b1f 453d 2d92 833f 47f4 5818 aab6 3dbf
00000240: f1b0 fca0 ab04 6cbf 41e8 82f3 328d 73bf
00000250: cee1 6712 da16 a03f ce7f 9fb6 a2cf 463f
00000260: 2711 a0c6 4b17 89bf 12ad e222 86e2 7dbf
00000270: 733f 5f8a 5d44 6abf 5014 6751 3134 a23f
00000280: 5a0d 00e0 f79a 853f c756 0c18 f40a 8dbf
00000290: 2987 f43a fded 94bf 18c5 40f0 7662 88bf
000002a0: 0e9e 16b3 9b1e 843f 58a1 511a 4598 8c3f
000002b0: 85a2 0052 ad2c 80bf 41c0 f178 5813 84bf
000002c0: 08ea 7d60 08aa 7fbf 7563 be4a 95b1 9f3f
000002d0: bbbf 1949 dcda 833f 5566 f668 8ee7 473f
000002e0: 3ce6 00d7 119a 96bf 7459 0815 0968 82bf
000002f0: b36e 9491 db7a 963f 5eae 1950 96d4 903f
00000300: f02a 601c 64ad 73bf b967 bf98 751f 96bf
00000310: 6cc4 bb95 2c6f 87bf 62f4 48c4 40ad 803f
00000320: 627b 2b07 e9a3 7a3f 2e61 c881 7c47 813f
00000330: 9725 41be f322 6fbf 4ce6 994f a1cc 85bf
00000340: f35d 1c5f 956a 863f 8b6c f223 7614 88bf
00000350: 96b0 62eb d7d9 81bf c0d4 78da 695e 703f
00000360: 7101 6e76 c0cd 96bf b820 f8d8 df42 7c3f
00000370: 216d ac28 6466 73bf b286 6063 9905 4fbf
00000380: d5c6 bcc0 b13f 6bbf 9470 028b d8a3 643f
00000390: 38e8 299c 199e 823f 3e83 b1a1 642a 79bf
000003a0: 7407 4226 8f93 883f 5cb7 19a1 4e73 743f
000003b0: 9858 ac1e faa1 813f 6182 1269 b5af 8c3f
000003c0: 742e 7ba7 2acb 813f a50c 17a5 f6b4 7c3f
000003d0: 8861 088a 3363 53bf 2626 d0f9 fc25 8cbf
000003e0: a94b b0b8 9f85 563f 6d39 2faf 1971 bebf
000003f0: eab0 6272 1838 c3bf c4ee c1bc b428 c2bf
00000400: 0935 94ae a71b c1bf 3fc1 4f57 d983 bebf
00000410: adef 2d35 94c9 bfbf 7e80 5bb0 1368 c1bf
00000420: 0281 f7a0 213e c2bf d0c5 0d0b 48dd bdbf
00000430: 56d2 0e55 4b57 bbbf 328c 39e4 32e8 babf
00000440: d3e8 6740 ab80 c0bf 1593 6f1e 2fb5 c1bf
00000450: e833 0672 8bd5 c2bf 2093 c20e 24b1 b9bf
00000460: da2a 659c c5dd bbbf 9a7e a465 6dbd c1bf
00000470: e5ad 2ad1 5960 c2bf 6f04 1b54 7ed4 bfbf
00000480: 83fa bad4 bc3e bbbf c298 dc42 fb63 bebf
00000490: 2b5d a3d6 e3a2 c3bf b42a d521 aba2 c2bf
000004a0: 6a04 cbbb 0911 c1bf eb98 e68c 9e4d b9bf
000004b0: 0973 da21 56ca 593f ddc0 fa69 26b4 5ebf
000004c0: b9c4 dd77 5988 83bf 947c 93cf 0450 57bf
000004d0: ed23 d4d0 c835 74bf cdcd b88f d047 71bf
000004e0: 21f8 b1a3 5f33 713f c754 bcd1 3fbc 68bf
000004f0: 2daa 7200 3dcd 85bf b0f3 6b02 92fa 97bf
00000500: 2bd2 0207 8925 873f 18ac 0d58 bf4b 423f
00000510: 5419 0a8b 7fb7 76bf 9477 d2bb dc59 523f
00000520: f0ef 18ab c0c9 813f 9898 edf8 f2eb 673f
00000530: 08f0 fa33 1db2 5e3f 2d45 5a4b fb88 8cbf
00000540: 998f bae7 c356 8d3f 2fba 1d6f 2464 353f
00000550: 17d4 624f d245 8e3f 3e19 4690 0283 e43e
00000560: a56d ed67 96a4 703f f0db dff7 3821 623f
00000570: aff4 98e9 7cab 053f e3d1 8c0e ef52 62bf
00000580: 1a19 9b37 e59d 8dbf 8d37 29a1 a1f2 873f
00000590: 1e00 853f 2c10 94bf 25df 3e4b d0e7 6abf
000005a0: f9f6 349b 2815 69bf 1417 8464 b44a 85bf
000005b0: ea9f 9ffb 938f 7f3f a005 1563 c17e 5dbf
000005c0: 40d9 19ff 4894 77bf aec9 f682 ed89 713f
000005d0: fbe4 a46b 00d1 73bf beea 03f8 87da 8f3f
000005e0: b887 825a 4242 6a3f 34bc 71e9 1d9e 75bf
000005f0: dfcf 423e 52b1 94bf aa9b dc57 fd8c 8abf
00000600: 669c 6f18 3a49 893f 49c5 c0d8 1093 30bf
00000610: 7bde e90b 2460 6bbf b7ba 4199 4626 903f
00000620: 7c14 2934 de7c 8abf 0079 5975 9537 71bf
00000630: cfa0 9c1d 0f55 72bf e059 3aed 71f4 743f
00000640: 5dc2 2eaf d220 703f a172 95c9 5e4a 8dbf
00000650: 7c64 4c5d 38a1 9cbf 7616 b2a9 2c28 7f3f
00000660: 1695 8127 1fc5 933f 1aab 93b7 87e2 6f3f
00000670: 4a49 49e7 d051 7cbf 0c1f 3823 f5f7 9abf
00000680: 0df0 a4a8 2088 72bf dabd 39ba c4e2 9b3f
00000690: 9886 7a1c 8d3a 863f 8445 3672 9e2a 8a3f
000006a0: ad35 0aef be6c 97bf 5d0b d0db 8e36 803f
000006b0: 9c71 6762 4ec3 813f 4365 1332 7712 913f
000006c0: 3e2f b3ad f3b8 86bf a8a3 9b94 9a56 94bf
000006d0: b28f df69 82e8 7fbf 8110 8f7c f78b a53f
000006e0: 75b9 f574 ffdf 7f3f b97e f9c5 81d0 9bbf
000006f0: 10bc 8fdb 3d67 93bf 1d35 a3d2 833b 813f
00000700: fc9b cd5e 704f 7c3f 93f2 0878 8c29 533f
00000710: 64f5 7179 7196 7cbf 1424 bdc0 4d8d 59bf
00000720: a37e b0ed 07c4 833f 9ee3 b859 4b5b 35bf
00000730: c1fb 7cc6 3f54 88bf cc83 07ce 3d79 98bf
00000740: b6ac c452 c645 853f 0077 d8b8 9ac0 973f
00000750: ce6d c8cf 2cdd 33bf b39a 0216 4976 91bf
00000760: 54d1 6f19 c766 98bf 50f9 7843 896f 7abf
00000770: d842 7693 76b1 8abf e574 0066 aee0 64bf
00000780: 0d36 14f2 8f0e 3b3f 28e3 8837 c055 8cbf
00000790: c728 26e6 2113 813f 2c51 2375 b40b 793f
000007a0: 85d4 a287 6957 943f 72cc eba7 b0ba 78bf
000007b0: 962a c836 0ed0 90bf 22eb 3cb3 0b63 953f
000007c0: f903 bc5d 4bd1 773f 6d41 a9d0 7cc8 6abf
000007d0: 8da2 0338 653c 6a3f 4864 df15 8705 643f
000007e0: 5ede 63d9 e008 873f 5c9b 80c7 db34 85bf
000007f0: 0151 c877 8f4d 743f 96c0 08d4 d535 833f

b f8 [25]
-0.11125532215246373 -0.13597161735533664 -0.14449426059468942 -0.1280128373960597 -0.108939259767455 -0.1137793495339114 -0.13871328320902093 -0.1461502844392607
-0.1299133868092125 -0.10669267073899467 -0.11555178658037797 -0.14298445910977614 -0.14988250532324945 -0.12353997034375316 -0.11267168646189202 -0.11227978883271927
-0.1428720563521708 -0.1473204780978652 -0.1281998778345752 -0.10965022537196734 -0.11516008345176532 -0.13444416073732798 -0.14454482517714845 -0.12533743109649378
-0.10966772996720765
00000000: 4299 2692 3a7b bcbf ced9 dc98 8467 c1bf
00000010: d560 dbb5 c97e c2bf 73c8 0a83 b962 c0bf
00000020: 80a0 f37d 71e3 bbbf 4d53 35b9 a420 bdbf
00000030: e6a6 735b 5bc1 c1bf 54de fb71 0db5 c2bf
00000040: c43e d479 00a1 c0bf 3700 8cfb 3550 bbbf
00000050: 956a 5b48 cd94 bdbf fe3a db93 504d c2bf
00000060: 358e 4d95 592f c3bf 0e0f 60c4 50a0 bfbf
00000070: 64fb 8938 0dd8 bcbf 08cf 0945 5ebe bcbf
00000080: 67bd c5ac a149 c2bf a80f bbbd 65db c2bf
00000090: 004a 5385 da68 c0bf b0bc f883 0912 bcbf
000000a0: d8de 3a98 217b bdbf 8ba3 c05c 7735 c1bf
000000b0: da8f 78e0 7180 c2bf 8515 c393 0e0b c0bf
000000c0: 49be a231 2f13 bcbf
